all_titles.pt (torch_old, 584375 bytes, 11 tensors)

weight f4 [100, 100]
000000 16 81 a3 bf 3e 63 f4 bf cb aa 27 40 f3 0f 12 40
       -1.2773769 -1.9092786 2.6197994 2.2822235
000010 89 10 82 be 43 0e 84 3f 15 70 aa 3f 80 2a 26 be
       -0.2540324 1.0316852 1.3315455 -0.1622715
000020 bb ac 79 3f c6 50 08 c0 10 b7 06 40 2e 4a 23 3f
       0.9752919 -2.12993 2.1049232 0.63785064
000030 16 18 9d 3f e2 fa b2 3f fb 39 cc 3e a8 b8 a5 be
       1.2272975 1.3982813 0.39887986 -0.32367444
000040 16 c8 a0 bf 7a 67 da 3f 39 0a 84 3f 8b ac dc bf
       -1.2561061 1.7062829 1.031562 -1.7240156
000050 b7 01 1b bf f5 fe 0a c0 5a 60 5f bf a4 30 bb bf
       -0.6054949 -2.1718113 -0.87256396 -1.4624219
000060 52 db 47 40 72 fa e3 3f a6 63 87 be 3d 13 92 bf
       3.1227612 1.7810805 -0.26443213 -1.1412121
000070 9b b0 97 bf bb 12 53 3f 2f 07 16 3f 71 0a 0c 3f
       -1.1850771 0.82450455 0.5860471 0.5470343
000080 19 f3 de 3e b0 9b 8c 3f 6b 90 69 bf 29 6e 8a bd
       0.43544844 1.0985012 -0.9123599 -0.06759293
000090 e2 b7 4f 3f 1d f5 c3 3f ae 54 c6 bf 4f 31 02 c0
       0.8113996 1.5309178 -1.5494592 -2.0342596
0000a0 a0 12 d3 3f 4e c4 06 3f 99 56 51 be 6f 60 02 c0
       1.6490059 0.5264329 -0.2044319 -2.0371358
0000b0 b6 6d c3 bd 25 4c a6 bf a2 d1 34 bf b1 11 8e 3f
       -0.0954241 -1.2991987 -0.70632374 1.1099149
0000c0 25 77 91 3f 09 5e 7f be 77 41 94 bf a1 1b 6d 3f
       1.1364485 -0.24938215 -1.1582478 0.92620283
0000d0 a0 ab 9b bf 5e 67 0a 40 6c c1 37 bf 6a 10 83 bc
       -1.2161751 2.162559 -0.71779513 -0.015999038
0000e0 e3 7c b7 be 0e f0 d2 be 70 1e c6 3e 0a 17 33 40
       -0.35837469 -0.41198772 0.38695097 2.7982812
0000f0 5b 03 90 bf 8f d2 48 c0 6f 8f b3 bf 52 51 24 be
       -1.1251024 -3.1378515 -1.4028147 -0.16046646
000100 81 81 21 3e cb 3f c2 be 0a 02 43 bf 10 e6 7b 3f
       0.15772058 -0.37939295 -0.76174986 0.9839792
000110 de 3d e5 bf 8c 4b ea 3f b2 86 96 3f c7 49 5d bd
       -1.7909505 1.8304305 1.1759856 -0.054025438
000120 0b c2 c5 3f 72 1d 93 be 05 6e c8 bf 4a b8 41 be
       1.5449842 -0.28733402 -1.5658575 -0.18917957
000130 e0 16 2b 3f 6f d7 55 be 09 a7 34 3f e1 90 c6 bc
       0.6683178 -0.20882963 0.70567375 -0.024239006
000140 f8 8b 27 3f 93 23 a2 3f 01 d3 04 c0 4d 3f 62 3f
       0.6544795 1.2667106 -2.0753787 0.8837784
000150 20 0a 49 bf 21 41 ba 3c 27 a9 ef 3e 34 e5 ee 3e
       -0.78531075 0.022736134 0.4680874 0.46659243
000160 9f 4d b4 bf 01 eb 9a bf 91 c7 1c bd 06 18 1c 3f
       -1.4086188 -1.2102968 -0.03827626 0.60974157
000170 91 18 3f 3f d0 63 04 40 65 8b 1a 3f 47 2c ac 3e
       0.7464686 2.068592 0.6036895 0.3362753
000180 c1 66 b2 3b e3 2a f1 be 41 a4 4f bf af 61 b9 be
       0.005444378 -0.47103032 -0.81110007 -0.3620734
000190 da d5 38 3e 92 5c 97 3e 26 da 1e 3e 88 a4 62 3f
       0.18050328 0.29562813 0.15512905 0.88532305
0001a0 2a 76 2d 40 63 1b f1 3f 39 76 11 3f d3 51 3e 3f
       2.7103372 1.8836483 0.5682102 0.74343604
0001b0 09 5a 19 c0 6a 0d 8b be ed d2 a4 3e fd ca 08 3f
       -2.3961203 -0.27158672 0.32192174 0.53434736
0001c0 7b d4 4f bf 74 fa 3f 3f 0c 59 f6 be 4f c7 ac bd
       -0.81183594 0.74991536 -0.48114812 -0.084364526
0001d0 df 79 fa bf f9 e1 1a bf 2b dd 8b 3e 45 b3 3d bf
       -1.9568442 -0.60501057 0.27317175 -0.7410167
0001e0 2d 6c fa be f8 8b d9 bf 82 01 35 bf dc f5 50 c0
       -0.48910657 -1.699584 -0.70705426 -3.265006
0001f0 14 27 1b bf e4 7b 7e 3f 03 dd ad 3e 9f 3e 35 3f
       -0.60606503 0.9940779 0.3395768 0.7079868
000200 1a ab 52 bf 7e f4 b8 3f e4 ab 41 3f 0f 94 3b 3e
       -0.8229233 1.4449613 0.7565291 0.18318199
000210 c6 74 97 3e b9 25 b0 be 65 23 1a 40 58 57 05 bf
       0.2958128 -0.3440378 2.4084103 -0.520864
000220 37 c1 f5 be 6c a0 c5 bd 9b 37 17 3e 38 78 92 be
       -0.47998974 -0.09649739 0.14767306 -0.28607345
000230 69 fd 56 bf 48 86 d3 3e 29 44 8d bf c7 31 05 c0
       -0.83980423 0.41313386 -1.1036426 -2.0811632
000240 ef ac 9c 3e 41 04 c7 bf fd fa b1 3e 9a ff d0 be
       0.30600688 -1.5548173 0.347618 -0.4082001
000250 f8 1e 7b bd c7 92 0a bd f7 89 ff be 3c fb 1d 40
       -0.06130883 -0.033831384 -0.49909946 2.4684591
000260 7e 92 af 3e d9 a4 5f 3d 04 34 d1 3f d1 eb 5f bf
       0.34291452 0.05460057 1.6343999 -0.874692
000270 5b ee ed bf 43 19 4d 3f 95 b8 6f 3f f1 3f ba 3f
       -1.8588365 0.8011667 0.93641025 1.4550763
000280 d4 09 1b 3f c9 fd 65 bd 7a 72 87 bf 9c 98 3c bf
       0.6056187 -0.05615023 -1.058181 -0.73670363
000290 8e c9 9b 3d 4d fc 4a bf a0 9d 22 c0 40 53 ae 3e
       0.07606803 -0.7929123 -2.5408707 0.3404789
0002a0 8d e1 54 3e 7b 75 67 bf 1d bf d3 bf df ad 9a be
       0.20789166 -0.90413636 -1.6542698 -0.30210778
0002b0 fb 41 c0 3e 45 26 d5 3e 20 59 59 3f b5 90 4c 3f
       0.3755034 0.4163076 0.8490162 0.79908305
0002c0 b7 36 6b be c9 77 e4 3f a6 5b 25 3f fc 24 6f 3f
       -0.22970091 1.7849056 0.6459297 0.9341581
0002d0 d3 4c 42 bf 6f f3 46 3e db 15 fb bf 5b 58 9c 3f
       -0.75898474 0.194288 -1.9616045 1.2214464
0002e0 b8 fe dc 3f a6 c3 42 3f bc fa e9 be 68 06 90 bf
       1.7265234 0.76079786 -0.45699108 -1.1251955
0002f0 49 14 18 be 0d 51 62 3f 83 73 14 bf 77 e2 38 40
       -0.14851488 0.88404924 -0.57988757 2.8888223
000300 07 82 9b be 8c 1b e1 3f e9 b7 32 40 8d ce 55 3f
       -0.3037264 1.7586532 2.792475 0.83518296
000310 d1 f9 86 bf b2 d8 50 3e 20 bd 7f 3f 33 52 5c bf
       -1.0544988 0.20395163 0.99897957 -0.86062926
000320 b1 12 24 c0 fc 14 1f be b5 85 a5 3f e0 b5 c1 be
       -2.5636408 -0.15535349 1.2931429 -0.37834072
000330 10 2d e6 3f ff a6 e6 bf 8d aa 1c bf e0 e5 44 bf
       1.7982502 -1.8019713 -0.6119774 -0.7691326
000340 39 c7 0e 40 f1 7b b0 3f 63 b5 ec 3f 5c 59 8d 3f
       2.2309096 1.3787824 1.8492855 1.1042895
000350 77 ae 2e be d0 ab 4a bf 9e 68 1b bf 7d 2a c7 3f
       -0.1705874 -0.79168415 -0.6070651 1.5559841
000360 48 60 11 c0 f5 fe 46 40 bd dd 89 3f 35 44 f4 bf
       -2.2715015 3.1093113 1.0770794 -1.9083315
000370 a7 68 1a bf ec 55 78 be c4 2b 0b bf 74 70 7d bf
       -0.60315937 -0.24251527 -0.54363656 -0.98999715
000380 93 93 e2 be 7b 9a 8b bf d0 13 fc 3f 49 12 55 bf
       -0.44253215 -1.0906519 1.9693546 -0.83231026
000390 f7 2a 80 bf 6b c6 49 be 9f 9f 89 bf 16 ba ae bf
       -1.0013112 -0.19704597 -1.0751837 -1.3650539
0003a0 d7 e2 6d 3f 2d eb 94 3f 8c a0 8b bd 3e dd a9 bf
       0.92924255 1.163427 -0.06817731 -1.3270643
0003b0 52 28 c3 bf df 45 bf 3e 1a 5f c9 be 07 c1 b8 be
       -1.524668 0.37357995 -0.3933037 -0.36084768
0003c0 97 d8 ae 3f 11 95 4e bf 0b 47 c4 be b7 1a 4e c0
       1.3659848 -0.8069621 -0.3833545 -3.2203805
0003d0 75 c5 7b bf 61 6e fe 3e 99 77 fd be 13 cb 0a 40
       -0.9834817 0.49693587 -0.49505308 2.1686447
0003e0 d2 c2 b3 3f cc bc 3a bf 89 a3 c0 3d 88 c2 02 3f
       1.404383 -0.7294433 0.09406192 0.5107808
0003f0 85 0f 2b bf a1 31 9a 3e 2a 48 ec bd 5d 9a e4 be
       -0.66820556 0.3011599 -0.11537202 -0.4464902

weight_ih_l0 f4 [300, 100]
000000 7c c5 a2 bf d4 da e5 bd 7a 9b 8b 3e e5 f9 87 be
       -1.2716517 -0.11223379 0.27267057 -0.26557842
000010 bc c4 1d 3f d9 dd 89 3d 74 43 82 3f bb 05 1e 3f
       0.6162832 0.06731767 1.0176835 0.61727494
000020 48 69 43 be 17 e7 bc 3f 3a a8 6f bd ba 32 f2 3e
       -0.1908313 1.4758023 -0.058510043 0.47304326
000030 c4 d1 4c be ee b3 cc 3e 99 06 e6 be 34 c0 48 3e
       -0.20001894 0.39981025 -0.4492691 0.1960457
000040 64 48 bf 3c 74 4e 8a be 0d ed 2e 3f 56 42 ba be
       0.023349948 -0.2701298 0.6833046 -0.36378735
000050 a8 a1 3c be 16 2e 04 3e be 9b 49 3f fa 7f 89 bf
       -0.18421042 0.12908205 0.7875327 -1.074218
000060 f2 a6 87 3f d4 b5 15 bf 43 74 9f 3f 9d fb 19 3f
       1.0597823 -0.5848057 1.2457355 0.60149556
000070 a6 9b 8c 3f f7 77 b4 3f 0b f7 f0 3d 2d 23 27 3f
       1.0985 1.409911 0.1176587 0.6528805
000080 77 12 89 3e da c7 ed bc 2f 10 e7 bd c4 21 2d 3f
       0.267719 -0.02902596 -0.11282384 0.6762965
000090 33 1d 1a 3f 6c b7 1c bf 6b 16 ed 3e d1 8f 57 3f
       0.60200804 -0.6121738 0.46306166 0.8420382
0000a0 b2 34 51 bf ef ea 1f bf 12 b8 09 3f 48 37 75 3f
       -0.8172103 -0.62467855 0.53796494 0.9578748
0000b0 e7 f3 c9 3e 9c 1b 8b 3c 50 07 80 be 41 b7 cb bd
       0.39443895 0.016980939 -0.2500558 -0.09947062
0000c0 4c 98 9e bf fc 7b 07 3f 99 01 fd 3f ae de 99 bf
       -1.2390227 0.5292356 1.9766113 -1.2021081
0000d0 7e 98 32 3f 32 96 99 3e 16 d8 53 3f a1 e7 22 3f
       0.69763935 0.29997402 0.82751596 0.6363469
0000e0 4f ee 03 bf 44 1f 3b 3e 03 8a ba 3f d9 31 0a 3f
       -0.51535505 0.18273646 1.4573368 0.5398231
0000f0 ef 81 b3 3e c5 3f 44 bf dd 4c 40 bd cc b9 94 3e
       0.3506007 -0.76659805 -0.046948303 0.29048002
000100 97 f3 04 3e 30 13 7c 3d 5f 74 99 3f 33 3a 24 bf
       0.12983547 0.061541736 1.1988639 -0.64151305
000110 70 0a 3b bf 5b bc 7b bf be 22 67 bf d7 60 1b bf
       -0.730628 -0.9833428 -0.9028739 -0.6069464
000120 40 c1 7b be 80 ed 13 3f 4b 3e 49 bc d5 d8 c2 3e
       -0.24585438 0.5778427 -0.012282918 0.38056055
000130 d9 53 6c 3e 3f 12 24 bc 6a fe 31 3e c4 3e 19 bf
       0.2307886 -0.010014116 0.17382208 -0.598614
000140 87 bf bd 3e 02 48 72 bd 60 fa 6d bf c8 56 5c bf
       0.37060186 -0.059150703 -0.92960167 -0.8606992
000150 df a7 97 be e6 01 cd 3e e8 55 a3 3e 39 e3 14 bf
       -0.29620263 0.4004051 0.3190148 -0.58159214
000160 bb b5 ba 3e 38 2f 0e bf e9 e0 27 3f 1b 9f d8 be
       0.36466774 -0.555408 0.6557756 -0.42308888
000170 81 c2 c0 3e 7d 4d 92 be db e6 cd 3e 76 00 75 3f
       0.37648395 -0.28574744 0.4021519 0.9570383
000180 54 02 7d be 69 5e ea 3e a3 96 f1 3e 6a 82 30 3f
       -0.2470792 0.45775154 0.4718524 0.68948996
000190 dc c5 a1 3e cc 14 f9 3e a4 d0 02 3f 5c 11 a4 bf
       0.31596267 0.4864868 0.5109961 -1.2817798
0001a0 5d 4c 30 bf 3d 20 a1 bb 14 b6 1a be 37 43 4b 3e
       -0.6886652 -0.004917173 -0.1510852 0.19849859
0001b0 5f 95 d3 3e a8 3c ba 3d 47 29 63 3d 22 b0 df be
       0.413249 0.090936005 0.055459287 -0.43689066
0001c0 d4 6a 33 be f8 cd 27 3f 04 8b fb be 79 91 38 be
       -0.1752122 0.6554866 -0.49129498 -0.18024243
0001d0 da b9 1c 3f 9b 84 61 bf 68 99 63 bf 8a 0b 17 3e
       0.61221087 -0.88092965 -0.88905954 0.14750496
0001e0 7b 97 2d be ca 28 1f 3f 3b f1 c1 bd 90 c5 a1 be
       -0.16952316 0.62171614 -0.09469839 -0.3159604
0001f0 e9 35 77 be e5 99 11 be 46 df 99 bf eb 84 29 3d
       -0.24141659 -0.14218862 -1.2021263 0.041386526
000200 73 5b a9 bf b2 30 bf bd 55 03 ea 3e 4c 1f dd be
       -1.3231033 -0.0933546 0.45705667 -0.4318794
000210 f9 f9 64 bf b4 9c 00 bf 7a 62 a4 3e 03 a8 76 be
       -0.8944393 -0.5023911 0.32106382 -0.24087529
000220 ad 71 54 bf c4 08 06 3e 38 ff 86 3f 79 7e c5 3e
       -0.82985955 0.13089281 1.0546637 0.38573053
000230 9e 95 3d 3f 57 ec ba be cd 98 86 bf 67 34 9b 3d
       0.7405642 -0.36508438 -1.0515381 0.07578354
000240 92 6a fd 3c 2a 80 ad bd 85 49 94 3e b5 3a 29 3f
       0.030934606 -0.08471711 0.2896234 0.66105205
000250 59 43 98 3d 62 3d 65 3e 81 15 55 3e d8 cf 44 3e
       0.074347205 0.22386697 0.20808984 0.19219911
000260 2d cd 3d bf 3a 95 81 3e 6f b5 61 3e 64 a5 98 be
       -0.741412 0.25309163 0.22041868 -0.29813683
000270 45 a5 e3 be f6 8c 62 be 60 28 35 3c f8 b3 9c 3d
       -0.44462028 -0.22124085 0.011056989 0.07651514
000280 18 45 25 3d 72 bf 53 bf 7d fb da 3e 22 ec bb bd
       0.040349096 -0.82714 0.42769995 -0.09175898
000290 6e f1 97 bf 65 62 01 3f 0a e1 b7 be 3b 91 7f 3f
       -1.1870553 0.50540763 -0.3591388 0.9983098
0002a0 9b e3 11 3f 05 f5 52 3f 56 d9 d3 be 5a 48 1c bf
       0.56987923 0.8240512 -0.41376752 -0.610479
0002b0 8c 2c 47 3e 52 b2 0e 3d a9 4c 9a 3f cb 5f 20 be
       0.19450587 0.03483803 1.2054645 -0.15661542
0002c0 bc 1d 10 bf 66 3f e2 be cb d2 c1 be c1 2d fe 3c
       -0.5629537 -0.44188994 -0.37856135 0.031027677
0002d0 1e e8 93 3b 71 95 8a bf d2 8b 16 3e 43 7c 71 bf
       0.0045137545 -1.0826856 0.14701775 -0.94330233
0002e0 d8 59 7e bf 0f d4 4b 3e 38 8f aa bf 84 e7 45 3e
       -0.9935584 0.19905113 -1.3324957 0.19326597
0002f0 95 f5 8e bd f0 f6 39 3f c8 51 3f be 96 b6 b4 bf
       -0.06980435 0.7264242 -0.18683541 -1.4118221
000300 22 bc 33 3e 63 bb 67 3f 81 ff b9 3d 01 29 1b 3e
       0.17552236 0.90520304 0.09081937 0.1515236
000310 2b 2c 10 3e a8 f0 33 bf 30 d6 23 be 60 ca d6 ba
       0.14079349 -0.7028909 -0.15999675 -0.0016387217
000320 7c ca dc 3f 53 39 76 3e 6c 3d 1a be 68 5d 0c 3f
       1.7249293 0.24045305 -0.15062493 0.54830027
000330 77 0c 2d bf ac 21 89 3f 07 61 91 bf c4 c3 0f 3f
       -0.67597145 1.0713401 -1.1357735 0.5615809
000340 05 a3 6d bf 0f 35 89 bf 63 fb 0c bf 70 83 12 bf
       -0.92826873 -1.0719317 -0.55071086 -0.5723181
000350 a5 22 aa 3f 90 11 3e bd 22 91 a3 3d f3 c2 1c 3f
       1.3291823 -0.046403468 0.07986666 0.6123497
000360 43 2e 67 3e 63 bd f3 bd be 3f e8 3e f5 e5 d1 be
       0.22576241 -0.11901357 0.4536113 -0.40995756
000370 05 fa 16 3c e9 5e 92 bf fb 41 3c bf fb 96 93 bd
       0.009214883 -1.1435214 -0.7353818 -0.072065316
000380 58 9c 9d bf 25 a5 58 be b5 ae a0 be 8d 25 65 3e
       -1.2313337 -0.21156748 -0.3138329 0.22377606
000390 78 54 91 bf 55 40 ab be 21 c2 3e 3f 03 7a 96 be
       -1.1353903 -0.3344752 0.7451497 -0.29389963
0003a0 57 99 a4 3e 00 f0 ad be 39 74 47 bf df d9 12 3e
       0.3214824 -0.33972168 -0.77911717 0.14340924
0003b0 0f 10 47 3f 48 21 16 bf 48 7c e7 bb d7 53 6e be
       0.7775888 -0.58644533 -0.007064376 -0.2327417
0003c0 64 ec b5 3e 66 da fa bf ce 72 4e be 08 af c1 bf
       0.35531914 -1.95979 -0.20160982 -1.513154
0003d0 0f 58 8f 3e ba 1c 96 bd 0e 44 46 bf 08 2f cd 3e
       0.2799687 -0.07329698 -0.77447593 0.40074944
0003e0 16 5d 12 3e 89 85 de bf 7e 74 59 3e bc e2 45 bf
       0.14293322 -1.7384502 0.21235844 -0.77299094
0003f0 44 45 01 bf 02 86 1e 3f e2 7a 98 3e 9e de 35 3e
       -0.50496316 0.6192323 0.29781252 0.17760703

weight_hh_l0 f4 [300, 100]
000000 4b 5a 2e 3e 4b 43 8b bf 87 8a 14 bf 93 47 1b 3f
       0.17026632 -1.0879911 -0.58023876 0.6065609
000010 1c 75 69 3e 9c ed 3a be 2d c2 70 be dd 33 66 3e
       0.2279858 -0.18254703 -0.23511572 0.22480722
000020 47 cf a1 3e 54 3b 73 bf d9 0c 49 3f 04 39 8b bf
       0.31603453 -0.950124 0.7853523 -1.0876775
000030 44 3a 42 3e b2 28 e6 bd 9f f0 a3 3d 4b 22 88 3f
       0.18967539 -0.11238231 0.08004879 1.0635465
000040 c7 ea 04 3f 0a 63 80 be 60 be af bf 94 81 2b 3f
       0.5192074 -0.2507556 -1.3729973 0.66994596
000050 12 f5 3a bf 96 c3 0a bd ba 76 6d 3f d9 72 b2 bc
       -0.730302 -0.03387793 0.9275929 -0.02178328
000060 26 e5 11 3f 5f 30 48 bf fc 10 05 3e bf 8e 33 bf
       0.5699028 -0.7819881 0.1299476 -0.7013969
000070 09 14 39 bf 81 5e 7e 3f e1 13 ef be fa 15 74 be
       -0.72296196 0.9936295 -0.46694854 -0.23836508
000080 90 e4 8e be 3d 94 61 be 2f 48 33 bf 88 18 b1 bf
       -0.27908754 -0.22029205 -0.7003202 -1.3835611
000090 fe a3 8a 3c 88 9b 4d be 38 f4 a9 be 96 55 3d 3f
       0.0169239 -0.20078862 -0.33194137 0.7395872
0000a0 66 de c2 be 71 12 20 bf f7 ea 1b 3f 5c 68 3f 3e
       -0.38060302 -0.6252814 0.609054 0.18692154
0000b0 d4 ae db be c3 d2 16 bf 0c 01 9e 3d 42 c7 e9 3d
       -0.4290682 -0.58915347 0.077150434 0.114149585
0000c0 2c 30 37 bf e5 80 1f bf 86 34 74 bf fa 32 45 be
       -0.7155788 -0.6230605 -0.95392644 -0.19257727
0000d0 90 5a 35 bc 37 0a bd 3e a1 9b eb bd 0a b1 89 3d
       -0.011068955 0.36921856 -0.11504293 0.06723221
0000e0 93 26 42 bf cf 35 14 3e 81 48 ce 3e 33 00 61 3f
       -0.7584011 0.14473651 0.4028969 0.8789093
0000f0 e3 6c 22 3f e7 a0 1e bf c4 89 7e be 05 66 2f bf
       0.634474 -0.6196427 -0.24857241 -0.68515044
000100 1c a4 b0 bd 26 86 29 bf bb 79 84 be 20 af 80 be
       -0.086250514 -0.6622032 -0.25874123 -0.2513361
000110 4e e6 ad 3f 6d 71 d7 3e ef eb 36 bd 17 92 fc bb
       1.3585908 0.42078725 -0.044658598 -0.007707845
000120 39 e3 28 3f 8a 79 98 3f f0 d5 49 be 39 41 8d 3e
       0.65971714 1.1912091 -0.19710517 0.27588823
000130 45 48 63 3f b2 75 b5 bc 66 0c 38 3f 9b 0e 85 3f
       0.8878215 -0.022150848 0.7189392 1.0395082
000140 4f 59 a6 bd a3 92 32 3d 0e 3a 83 3d 7b 5d de 3d
       -0.08122503 0.043596875 0.064075574 0.10857674
000150 fe 97 58 be 40 44 d4 3e d0 38 88 3e 84 87 a0 3e
       -0.2115173 0.4145832 0.26605844 0.3135339
000160 ef 3f 8f 3e a7 7d 1e be 87 91 2f 3f e4 48 ee bd
       0.27978465 -0.1547762 0.6858143 -0.116349965
000170 96 90 26 3c 5c 0d 05 bf 63 0e 2c 3f 1c 26 dc be
       0.010166308 -0.5197351 0.6720945 -0.42997825
000180 ff 99 90 3e e1 ff 69 bf a0 68 25 3e 90 b3 bf be
       0.2824249 -0.91406065 0.16153193 -0.37441683
000190 e1 16 40 3f e9 04 97 3e 7b 81 95 3e 4f ce 84 bf
       0.7503491 0.29495934 0.29200348 -1.037546
0001a0 3e b6 59 3e d0 76 47 bf 7a aa 22 bf a1 1a 95 3e
       0.21260926 -0.7791567 -0.63541377 0.2912188
0001b0 b1 46 dc 3e 01 63 55 bf 77 a4 23 bf ce 09 a3 be
       0.43022683 -0.8335419 -0.6392283 -0.31843418
0001c0 af 6a d1 3d 87 ff e7 3e 9a b1 e9 be 8c f9 ad 3d
       0.102254264 0.4531214 -0.45643312 0.08494863
0001d0 de 29 76 3f ab bc 69 bf 06 01 bb be c0 60 46 3f
       0.96157634 -0.9130351 -0.36524218 0.7749138
0001e0 be 77 86 be 50 28 90 be 08 2e 8c bf 92 4c 55 bf
       -0.2626323 -0.28155756 -1.0951548 -0.8331996
0001f0 70 bb f9 be 31 ee a4 ba ec f7 0c 3f 31 f1 05 3f
       -0.48775816 -0.0012583194 0.550658 0.52321154
000200 97 6e 36 be b6 bc 48 bf e4 74 d2 be 44 8e 57 be
       -0.17815624 -0.7841295 -0.41104805 -0.21050364
000210 21 f9 e7 3e 0a 2a 28 3f f9 c2 96 be 15 fc 64 3f
       0.45307258 0.65689147 -0.29445627 0.89447147
000220 21 ac 2d bf 15 c7 2d 3f 01 81 3f be e9 49 67 3e
       -0.6784077 0.678819 -0.18701555 0.22586788
000230 69 d6 2a bf be 49 84 bf d7 60 e7 be e2 05 fb 3c
       -0.66733414 -1.0335004 -0.4519107 0.030642454
000240 6f 4e 10 3f 3d ce d0 bf a9 fe e7 be e6 dd 27 bf
       0.5636968 -1.6312939 -0.45311478 -0.65572965
000250 c6 c9 a0 be d8 af 2e bf f4 ed a3 3e 66 d5 12 bd
       -0.3140394 -0.68237066 0.3201748 -0.035848044
000260 f8 d9 46 be 08 4d 2e bf 01 43 a8 3e ec 1b 82 3f
       -0.19419086 -0.6808629 0.3286362 1.0164771
000270 49 30 86 bf f7 72 2c be 1d 70 87 bf cc 35 e6 3f
       -1.0483485 -0.1684073 -1.0581089 1.7985168
000280 e7 68 34 bf 4f a0 9d be 0a 9e b1 be d3 9a 1a bf
       -0.7047257 -0.30786368 -0.34690887 -0.60392493
000290 e9 fd cb 3c e5 a2 53 be c2 9c 0f bd 45 74 37 3f
       0.024901347 -0.20667608 -0.035061605 0.7166179
0002a0 e2 1b 7a bf b9 62 b0 3e 06 39 b9 3e 77 35 c0 bf
       -0.97698796 0.3445032 0.36176318 -1.5016316
0002b0 3d 58 6a be f6 07 6c 3e af 97 20 3f f5 75 3c be
       -0.22885223 0.23049912 0.6273145 -0.18404372
0002c0 91 39 82 3f 45 f3 22 3f fb 46 ea be ba 31 37 3e
       1.0173818 0.6365245 -0.4575728 0.17890063
0002d0 ff a3 92 bf 34 79 08 3f bf b6 e5 be 8a 74 04 3e
       -1.1456298 0.5330994 -0.44865987 0.12935081
0002e0 ab 93 8e 3f 22 6f c2 3e 6f 90 58 bf 84 79 a0 bf
       1.1138815 0.37975413 -0.8459539 -1.2537084
0002f0 47 07 d7 3e de c7 68 3d 30 ae 81 bb e2 35 bb bf
       0.4199774 0.056831233 -0.0039575323 -1.4625819
000300 c5 a1 28 be 30 cd 9e be 32 5e e6 be 00 bd ef 3e
       -0.1646796 -0.3101592 -0.4499374 0.46823883
000310 0a d2 cd 3c 8e aa 98 bf ab 92 88 3f 16 df c9 3f
       0.025124568 -1.1927049 1.066976 1.5771205
000320 8e fc cd be a7 3e b2 bf 35 e3 21 bf 7e 59 8e bf
       -0.40231746 -1.392537 -0.63237315 -1.1121061
000330 cf b6 c8 bd ff 55 40 3e 23 19 a5 3d 6a 40 f9 3d
       -0.09800493 0.18782805 0.08061435 0.12170489
000340 01 d6 a8 3e d7 cf eb be cc d1 09 3f 54 1b 79 bf
       0.32975772 -0.46057007 0.5383575 -0.97307324
000350 3b 4d a8 be ac b1 06 3e e2 f7 b1 3e 32 9a 18 3d
       -0.32871422 0.13153714 0.34759432 0.037256427
000360 a4 7a e0 be 60 43 d9 be 58 72 30 bf 92 05 b1 3f
       -0.43843567 -0.42434216 -0.68924475 1.3829825
000370 f4 fc 9d be 57 e6 fa bd bd ff 02 3d 4c b6 0b 3f
       -0.3085705 -0.12250965 0.031982172 0.5457504
000380 9c 41 1c bf 70 39 81 be 67 6c de be 81 ae 47 3e
       -0.6103761 -0.25239134 -0.4344208 0.19500162
000390 39 94 da be 16 78 43 3f e0 34 5c be d3 0e 89 bf
       -0.4269121 0.7635511 -0.21504545 -1.0707649
0003a0 40 dc 53 bf c8 82 81 3d 3d 3a 99 3e ce d7 05 3f
       -0.8275795 0.06323773 0.29927245 0.52282417
0003b0 19 8a 35 bf 36 d1 1d bf 1b c4 c4 3e bd e7 2a be
       -0.70913845 -0.61647356 0.38430867 -0.16689964
0003c0 bf 9f 3c bf 65 61 c7 be 16 09 cd bd c1 6f a9 3f
       -0.73681253 -0.38941494 -0.10011499 1.323723
0003d0 68 5b 3b bf 3d 49 b4 bf 6e 1d 01 3e 4d 05 a7 be
       -0.7318635 -1.408485 0.12608883 -0.32621232
0003e0 bc 4a 6d 3e 99 c0 22 3f fb 8e 13 3f ad 57 3b 3d
       0.2317304 0.6357513 0.57640046 0.04573791
0003f0 ef ee b7 be 6c 6d d8 be e0 d2 29 3e a6 2c f1 bd
       -0.3592448 -0.42270982 0.16584349 -0.11776094

bias_ih_l0 f4 [300]
000000 b1 34 1f bf 10 78 90 3e d4 be cb be ca 21 19 3e
       -0.62189776 0.282166 -0.39794028 0.14954296
000010 23 68 b6 3c 83 6c 2b 3e 5e fe c1 be e8 72 ac bd
       0.022266453 0.16740613 -0.3788938 -0.08420354
000020 60 a6 7d bd 46 70 b7 be 94 bd 30 bf 0c 8f 2d 3e
       -0.061926246 -0.35827845 -0.69039273 0.169491
000030 d0 37 e7 be 56 99 38 3e 3e 95 3c 3e df 66 f5 3d
       -0.4515977 0.18027243 0.18416306 0.11982512
000040 d1 c2 ec be e4 73 cc bd 63 fd af bd 26 28 12 be
       -0.46242383 -0.09983042 -0.085932516 -0.14273128
000050 22 33 b5 be 8c e2 e1 be a5 47 d0 3d 83 89 3f bf
       -0.35390574 -0.44118154 0.10169915 -0.748192
000060 9b 6b d5 be bb ed c3 be 76 fd 99 be 35 58 2e bf
       -0.4168366 -0.3826731 -0.30076188 -0.68103343
000070 98 b7 40 bf 20 77 d4 bd 50 84 86 bd ba 10 2e 3e
       -0.7528014 -0.10374284 -0.06568205 0.16998568
000080 28 93 fd 3c f2 da 53 bf 70 0b d3 be ee e5 91 be
       0.030953959 -0.8275596 -0.41219664 -0.28495735
000090 a8 0e a1 be 01 02 c6 3c ee 57 f7 be 39 bc e6 be
       -0.31456494 0.024170877 -0.48309273 -0.45065477
0000a0 f1 10 f7 bd 4b a7 7a bc 76 b6 c4 3d 47 5e e8 be
       -0.12063778 -0.015298675 0.09605114 -0.45384428
0000b0 20 a7 9a be a6 41 d5 be 5c e2 99 bd 7c b8 f8 be
       -0.3020563 -0.41651648 -0.07513878 -0.4857825
0000c0 5f ef 18 bf 2c cf 24 bf a5 f6 78 be b6 67 2c bf
       -0.5974025 -0.6437862 -0.24312837 -0.6734575
0000d0 da de 9d 3e ff 3c b4 3d 43 8d 37 bf 6f 4e 3d bf
       0.30834085 0.088006966 -0.71699923 -0.73947805
0000e0 20 87 2c bf f0 09 b6 3c 92 43 a4 be 6d e7 e1 be
       -0.67393684 0.022221535 -0.32082802 -0.44121876
0000f0 d5 a9 40 bd 9e 26 c1 3b 6b 96 77 3e 48 61 d0 be
       -0.047036964 0.005894496 0.24178474 -0.4069922
000100 4d fb 22 3e 50 26 08 bf dd 83 2e be dd 31 98 3d
       0.15916176 -0.5318346 -0.1704249 0.07431386
000110 03 53 92 be 19 26 8e 3c 77 a4 d2 be f3 1d 1b bf
       -0.28578958 0.01735215 -0.41141102 -0.60592574
000120 3b b9 80 3e cb dd a6 be 4d 65 4d bf a8 2a c3 be
       0.2514132 -0.3259109 -0.802327 -0.38118482
000130 f1 e7 0a bf a4 44 36 bf ba 91 9f be a1 98 d5 be
       -0.54260164 -0.7119849 -0.31165868 -0.4171801
000140 e5 55 d1 bd c4 9c 0b 3f cc 66 1d 3e a4 bf 8b be
       -0.10221461 0.5453608 0.15371245 -0.27294648
000150 1b 4f 00 bf d2 df 16 be b0 1a 47 bf ae ee a0 be
       -0.50120705 -0.14733818 -0.77775097 -0.31432098
000160 83 2f 37 3e c8 87 ba 3e 42 4b ea be a1 5a a7 be
       0.17889218 0.36431718 -0.45760542 -0.32686332
000170 c2 71 82 bc 48 48 e6 3e 7c 32 43 bd 01 19 ab 3d
       -0.015923385 0.4497702 -0.047655568 0.083543785
000180 c5 23 04 bf c0 b2 c0 be f9 61 04 bd e2 b0 84 be
       -0.5161708 -0.37636375 -0.032319997 -0.259162
000190 71 df 3b bf df ce 0a bf 10 43 ac be 62 74 2f bf
       -0.7338782 -0.5422191 -0.33644915 -0.6853696
0001a0 80 65 2e bf a1 d0 fc be 6e 8a ff be b0 58 41 bf
       -0.68123627 -0.4937792 -0.499103 -0.7552595
0001b0 e2 b6 50 bf 9d 14 61 bf 6f 5c 47 bf b2 67 d6 be
       -0.8152906 -0.8792208 -0.7787542 -0.41875988
0001c0 09 51 b5 bd 50 eb 3a bf a0 27 b4 be 4a 00 47 bf
       -0.08853347 -0.7301531 -0.3518648 -0.77734816
0001d0 4d 8c 87 be d7 32 3a bc e1 f0 d8 bd 35 1d 62 be
       -0.26474229 -0.01136466 -0.10592819 -0.22081454
0001e0 ce 36 a1 bd 3d 46 66 3d ba 36 cd bd c1 61 55 bf
       -0.07871781 0.05621933 -0.10020204 -0.83352286
0001f0 93 cb d8 3d 3c 05 71 bf da 94 73 bf 86 66 7d bf
       0.10585704 -0.9414861 -0.95149004 -0.98984563
000200 49 63 05 be 53 da 4b bf c1 5f f4 3d c3 f6 c2 3d
       -0.13026156 -0.7963001 0.11932326 0.09519722
000210 6a c2 4f bf 49 a2 97 be 2e 94 79 be 2e 94 89 be
       -0.8115603 -0.29616 -0.24372932 -0.26870865
000220 de 3b f8 be 4d d0 47 bf 47 81 b8 3d 87 a5 85 bf
       -0.48483175 -0.78052217 0.09009033 -1.044114
000230 f2 37 fd be 06 8c 73 bf 95 31 90 be ad c2 23 bf
       -0.49456745 -0.95135534 -0.28162828 -0.63968927
000240 6c 5e 4b bf f8 10 e0 be 5a d4 11 bf 9e fb 22 be
       -0.7944095 -0.43762946 -0.5696465 -0.15916297
000250 fd 7e 46 bf 8c ff 53 bf b8 7a a5 be 0c 11 87 be
       -0.7753752 -0.8281181 -0.3232019 -0.26380193
000260 50 25 96 be 4c 85 ad bf 15 07 98 bf 63 2a 39 3c
       -0.29325342 -1.3556304 -1.1877161 0.01130161
000270 bf 5c 7c be 7e 0a 1b bf ac 15 71 bf 4a 20 14 bf
       -0.24644755 -0.60562885 -0.94173694 -0.5786177
000280 2e c8 48 bf 10 eb 5f bf b2 70 16 bf e2 c2 66 be
       -0.7843045 -0.8746805 -0.5876571 -0.2253528
000290 36 bb c9 be 5e 2a 7f bf 6f d0 e1 be 6b 1f 8f bf
       -0.39400643 -0.9967402 -0.44104335 -1.1181463
0002a0 ad 62 a1 3d ea 65 80 bf bd 00 0c bf b6 f5 23 bf
       0.07880149 -1.0031102 -0.54688627 -0.640468
0002b0 7f 18 5d bf db e4 00 bf 9c f6 91 be 87 61 90 be
       -0.86365503 -0.50349206 -0.2850846 -0.28199407
0002c0 a9 17 ac bf a2 7b 63 bf 83 96 4b be ad 67 31 bf
       -1.344472 -0.88860524 -0.19881634 -0.6929882
0002d0 d5 14 66 bf 02 e8 47 be d5 77 a4 bf 14 b4 01 bf
       -0.8987554 -0.19522098 -1.284907 -0.506654
0002e0 67 cd c4 be f1 22 f9 bd 05 ce 57 bf bd ce 43 bf
       -0.3843796 -0.12164868 -0.84298736 -0.7648733
0002f0 5b 68 b4 3d c6 00 1f bf 1c c5 0b be 2a f7 0a 3d
       0.08808967 -0.62110555 -0.1364941 0.03392712
000300 f6 19 23 bf 6c 54 8c bd ac 51 40 bf 61 61 49 bf
       -0.6371149 -0.0685204 -0.7512462 -0.78664213
000310 26 99 1b bf a7 b0 46 3f d4 f7 d2 be 7a 4b dc be
       -0.6078056 0.776133 -0.41204703 -0.43026334
000320 b2 d1 c4 be 61 8b 83 3d 9b 15 22 be ca fe 54 be
       -0.38441235 0.06423069 -0.15828554 -0.2080032
000330 56 e2 36 bd ae 50 2c 3d 94 1f f4 be 9d b2 16 3d
       -0.044649445 0.04206913 -0.47680342 0.036791433
000340 ca a9 22 be 6f 27 a2 be 11 d6 73 bd 4f 57 5d 3e
       -0.15885082 -0.3167071 -0.05953032 0.21615337
000350 46 cf 51 bd b6 a8 5c 3e 2e 19 7e 3e 39 00 44 bf
       -0.051223062 0.21548733 0.24814293 -0.7656284
000360 d6 87 5b bd cd 56 af be 22 4e 1d 3f 1a 29 a7 3e
       -0.05359634 -0.3424591 0.61447346 0.32648546
000370 fa 61 28 bf 3a 26 00 be aa 3a d9 3e 74 b0 fc 3e
       -0.657745 -0.12514582 0.4242757 0.49353373
000380 25 a2 a8 3e 4d 6a a9 3d d0 91 08 3e 5d 52 f4 3d
       0.32936206 0.082722284 0.13336873 0.11929772
000390 59 ba 9f 3d a3 c2 fb be 27 95 7a 3d 87 5e 6e 3e
       0.07799215 -0.49171934 0.0611774 0.23278247
0003a0 99 a5 f8 be 0e 0d c4 3e a1 e5 a2 3e a7 49 77 be
       -0.4856384 0.3829121 0.31815818 -0.2414919
0003b0 51 b6 66 3c 9b 73 48 bf a6 c9 d8 3e 55 92 d0 3d
       0.014081554 -0.783014 0.42341346 0.101841606
0003c0 98 06 f2 be e3 50 bc be 2f 48 9c be 02 ab b7 3d
       -0.47270656 -0.36780462 -0.30523822 0.08968164
0003d0 6b 9b ed 3c 18 3f a4 3e 34 16 e0 3e c3 df b1 be
       0.029004773 0.32079387 0.4376694 -0.3474103
0003e0 2c 7a 92 3e bf 87 b5 3e 0d e8 38 3e c5 18 63 3e
       0.28608835 0.3545513 0.1805727 0.22177418
0003f0 83 42 fa be 3c 75 47 3e 4b fe ea be d7 43 91 3d
       -0.4887887 0.19478315 -0.45897135 0.070930175

bias_hh_l0 f4 [300]
000000 6c ae 25 bf d2 b4 73 3e 36 aa ee be 3e ad 9c 3e
       -0.6471927 0.23799446 -0.46614236 0.30600923
000010 c3 67 e8 bd 3a 75 64 3e 42 a9 b0 be e1 3d 92 3a
       -0.11347916 0.22310343 -0.34504133 0.0011157357
000020 30 15 ac bd 02 3f 9f be 7a 64 3c bf 09 fe 6e 3d
       -0.08402479 -0.3110276 -0.73590815 0.058347736
000030 78 e7 fd be a8 dc 8b 3e 00 20 89 3e bb ce 9b 3c
       -0.4959066 0.27316785 0.26782227 0.019019475
000040 b3 e4 18 bf 69 91 fa bd ca d8 13 be b1 c8 fb bc
       -0.5972397 -0.12234766 -0.14438167 -0.030735346
000050 de 8b 8b be ce d7 d4 be 1d 72 82 3e d7 ce 2c bf
       -0.27255148 -0.41570896 0.25477687 -0.6750311
000060 eb 9f d4 be 4b b5 d4 be d4 9b 60 be 6f 75 19 bf
       -0.41528258 -0.41544566 -0.21934444 -0.59944814
000070 da 9d 35 bf ce 9d ab bd 26 4e 23 bd 8d 52 8c 3e
       -0.7094399 -0.08379708 -0.03986945 0.2740673
000080 e5 db f2 3d d8 18 73 bf a0 63 95 be 07 b7 8f be
       0.11858348 -0.94959784 -0.2917757 -0.28069326
000090 43 3c d5 be ed 43 bd 3c 90 d0 0b bf 8d fb b3 be
       -0.4164754 0.023103679 -0.54615116 -0.35152856
0000a0 30 86 3e be 7e be d8 3d b9 e0 64 3e 19 1f f2 be
       -0.18605876 0.105832085 0.2235135 -0.4728935
0000b0 b4 20 c2 be 6c 86 c7 be 1d 21 89 bd 9f dc 10 bf
       -0.37915576 -0.38969743 -0.06695769 -0.5658664
0000c0 2f 22 ff be d0 b9 51 bf c8 29 10 be 2c b5 0d bf
       -0.49830768 -0.8192415 -0.14078438 -0.5535457
0000d0 8f 82 87 3e 4f bc e6 3c af 16 50 bf 92 bf 1d bf
       0.26466796 0.028165964 -0.8128461 -0.6162044
0000e0 3c 56 3b bf cc 29 e1 3c bc 3d a8 be b9 c9 9a be
       -0.7317846 0.02748575 -0.328596 -0.30232027
0000f0 81 4e a6 bd b1 32 fc bc 62 ce 73 3e b6 62 b8 be
       -0.08120442 -0.03078589 0.23809198 -0.3601281
000100 62 f1 64 3c bf b9 0e bf 48 57 26 be 50 f4 4a 3d
       0.013973566 -0.55752176 -0.16244233 0.0495494
000110 25 df b7 be b2 05 02 bd 1f 61 ea be ef d6 f1 be
       -0.35912433 -0.031743713 -0.45777223 -0.47234294
000120 0c bd a4 3e 43 10 a8 be 6b 31 24 bf 8c 39 bb be
       0.3217548 -0.32824907 -0.64137906 -0.36567342
000130 e4 0d 18 bf 7a 8e 36 bf 0d ea bc be 79 9a d8 be
       -0.59396195 -0.7131115 -0.36897317 -0.42305353
000140 1d 78 46 be fe 49 f0 3e b9 00 dd 3d b6 40 5f be
       -0.19381757 0.46931452 0.107911535 -0.21802029
000150 97 22 00 bf ac b5 c4 bd 6c 24 26 bf a0 18 cd be
       -0.5005278 -0.09604964 -0.64899325 -0.4005785
000160 75 c6 47 3e 68 d9 a4 3e 48 e9 a9 be ec 1f ce be
       0.19509299 0.32197118 -0.33185792 -0.4025873
000170 f8 17 d3 3c 70 a2 d3 3e 26 a7 ed bd 6c 14 b0 bc
       0.025768265 0.41334867 -0.11604147 -0.021494113
000180 3a 23 13 bf a0 14 cb be eb 73 18 be e4 2a 93 be
       -0.57475626 -0.39664173 -0.14887969 -0.2874366
000190 cb 6f 28 bf 8d 26 22 bf cc 67 98 be e8 7f 34 bf
       -0.6579558 -0.63340074 -0.2976669 -0.7050767
0001a0 46 b5 0c bf 51 62 fb be ac fc af be dc 38 50 bf
       -0.549641 -0.49098447 -0.3437246 -0.8133676
0001b0 0c 90 4a bf e7 20 7a bf 4b 9c 34 bf f0 9e a9 be
       -0.7912605 -0.97706455 -0.70550984 -0.33129072
0001c0 9f f6 b3 3d b8 b6 13 bf 08 67 b9 be f8 cf 36 bf
       0.087872736 -0.5770068 -0.3621142 -0.71411085
0001d0 5d b7 7a be dc 62 32 3d 33 7e 61 bd b9 6a b6 be
       -0.2448401 0.04355131 -0.055051994 -0.35628298
0001e0 73 10 1e be ed 47 14 bc 72 85 32 bd 9f a6 37 bf
       -0.15435962 -0.009050352 -0.043584295 -0.7173862
0001f0 a4 ae a9 3b b2 c6 60 bf 0a 30 74 bf a7 13 8c bf
       0.0051782895 -0.87803185 -0.953858 -1.0943497
000200 bd a6 4b bd 3d 26 3b bf de 2c f9 3a 4f 30 eb 3d
       -0.04971956 -0.7310522 0.0019010564 0.114838235
000210 32 2d 60 bf 13 31 b6 be 0e 60 6a be da 74 71 be
       -0.8756896 -0.35584316 -0.22888204 -0.23579732
000220 26 74 0c bf 35 0e 49 bf 13 77 96 3d 95 e9 7d bf
       -0.5486473 -0.78537303 0.0734693 -0.9918454
000230 93 d7 d2 be 9a 09 68 bf ee 27 8b be 75 da 36 bf
       -0.41180095 -0.9063965 -0.271789 -0.7142709
000240 ce 0b 4a bf 16 e7 17 bf af 86 0c bf 12 85 3e be
       -0.7892426 -0.59336984 -0.5489301 -0.1860545
000250 b3 b2 49 bf 80 79 22 bf 71 e6 1a be 34 e9 01 be
       -0.787883 -0.63466644 -0.15126969 -0.12686616
000260 ce f5 d0 be 17 67 a6 bf 6f bc 89 bf 69 0e bb bd
       -0.40812534 -1.300021 -1.076063 -0.09133608
000270 72 ee 80 be 98 5f 07 bf 1b d9 82 bf a1 68 e7 be
       -0.2518192 -0.5288024 -1.0222505 -0.45197013
000280 c6 da 2c bf 4c 8e 54 bf b6 72 2a bf 78 3a 82 be
       -0.6752132 -0.8302963 -0.66581285 -0.25435233
000290 b4 20 d3 be 1d 97 78 bf 38 69 02 bf 63 2f 97 bf
       -0.41235888 -0.9710558 -0.509418 -1.1811336
0002a0 e8 25 ad bd 41 5f 8a bf 24 83 12 bf f8 4a 4b bf
       -0.08454496 -1.0810319 -0.57231355 -0.7941127
0002b0 87 d8 35 bf f3 a7 e8 be f2 d3 40 be 55 5c b8 be
       -0.7103352 -0.45440635 -0.1883085 -0.36007944
0002c0 b9 4e c1 bf 48 bc 72 bf b1 ac 86 be 65 07 0a bf
       -1.5102149 -0.94818544 -0.26303628 -0.53917533
0002d0 c3 7b 73 bf fc 44 c7 bd 31 29 b5 bf cb f7 c2 be
       -0.9511072 -0.097299546 -1.4153196 -0.38079676
0002e0 ed 06 b6 be 9b 61 1e be f5 4d 5c bf 69 ec 38 bf
       -0.3555216 -0.15466921 -0.86056453 -0.72235733
0002f0 00 9e 41 3d 34 fa 27 bf de 46 4a be ba 0b e3 bd
       0.04726982 -0.65616155 -0.19753596 -0.11086221
000300 cd 09 09 bf 3a 80 5a 3c ec 0e 59 bf 43 6a 34 bf
       -0.5353058 0.013336236 -0.84788394 -0.7047464
000310 ac 86 26 bf 17 d6 3a 3f 97 60 8f be 5e 62 f0 be
       -0.6504924 0.72982925 -0.2800338 -0.46950048
000320 85 30 58 be 2e 4e 59 3f a0 c5 2f 3f 34 63 41 bf
       -0.21112259 0.8488492 0.68660927 -0.75541997
000330 b6 5c dd be 1d ce c3 bf 27 20 a7 be ad 5b 83 bf
       -0.43234795 -1.5297276 -0.32641718 -1.0262352
000340 5b f9 47 bf 6b ec 53 3e a6 3a 84 bf 7c 96 3c 3f
       -0.7811486 0.20695655 -1.0330398 0.7366712
000350 b7 e3 57 be aa 81 c3 3d cc 5f 8f 3f 0e 26 ec bf
       -0.2108296 0.09546216 1.120111 -1.8449113
000360 07 d7 ba 3e 32 91 63 bf fe 7b 52 3f d4 10 d0 bf
       0.36492178 -0.88893425 0.8222045 -1.6255136
000370 2f 05 15 3e 1e 73 7a 3b 7a 37 6b bf 68 d4 3d 3f
       0.14552759 0.0038215588 -0.91881526 0.7415223
000380 a8 29 af 3e df 83 21 bf 57 76 b1 3e df ba 04 3f
       0.3421147 -0.63091844 0.346606 0.5184764
000390 56 f1 2d bf 74 9f 33 bf 66 89 b1 be cf bb ed be
       -0.67946374 -0.7016518 -0.3467514 -0.4643235
0003a0 49 72 50 bf 3f c0 4c bc 8e 5f c7 3f 02 e7 21 bf
       -0.81424385 -0.012497007 1.5576036 -0.63243115
0003b0 4a 3a 09 be 24 4f 05 bf 9a 8d 85 3f ee 2d 60 3e
       -0.13401142 -0.52073884 1.0433838 0.21892521
0003c0 13 c8 47 bf 47 fd 4b 3e 16 29 32 bf 6d fa 1d 3f
       -0.78039664 0.19920836 -0.6959394 0.61710244
0003d0 68 4f 8e 3f 5c a6 6a 3f b0 56 fa 3e b9 88 22 bf
       1.1117983 0.91660094 0.48894262 -0.6348987
0003e0 2d da df 3d c0 83 e9 be 41 03 4a bf 63 89 1e 3f
       0.109302856 -0.4560833 -0.78911215 0.61928385
0003f0 b5 48 a6 bf 2a b3 98 bd 13 91 13 be d5 99 4a 3f
       -1.2990938 -0.07456048 -0.1441081 0.7914098

weight_ih_l1 f4 [300, 100]
000000 d1 79 fe 3e 7a ef 15 bf 48 a3 19 3e b5 aa 91 3e
       0.49702314 -0.5856854 0.15003693 0.28450552
000010 41 15 68 3f 45 e5 b8 3e f1 36 c7 be 7e 2e 47 3f
       0.9065743 0.3611242 -0.38909104 0.77805316
000020 e9 0d ea bd 3c aa 1c 40 46 71 8c bf 3f ce 4c 3f
       -0.114284344 2.4478903 -1.0972068 0.80002207
000030 7d ac 55 3f 6e 23 ae 3e 29 8d 01 bf 7d 9a 65 bf
       0.8346632 0.34011406 -0.5060602 -0.89688855
000040 37 3b a9 bf 48 cf eb be 74 65 d0 3e c0 82 77 bf
       -1.3221196 -0.4605658 0.40702403 -0.96683884
000050 d4 23 18 3e 24 76 5b be 97 8b 91 be 79 99 c0 3f
       0.14857417 -0.21431786 -0.2842681 1.5046836
000060 47 c0 dd bf 11 e5 91 be 5c 76 50 3f 49 3e 73 bd
       -1.7324303 -0.28495076 0.814306 -0.05938557
000070 77 b9 3c bf 1f 13 99 be 31 04 cb be 1e 2d fc 3f
       -0.73720497 -0.298974 -0.39651635 1.9701269
000080 30 a2 10 3f d1 3a 3a bf 36 57 2a 3f 23 65 93 bf
       0.5649748 -0.72745997 0.66539323 -1.151524
000090 17 d8 07 3f cb 6b 9f 3f 2f ea c3 3e 12 3d 16 c0
       0.530641 1.2454771 0.38264605 -2.3474774
0000a0 70 2d f6 3e 83 53 9e 3f e3 87 36 bf 7e 90 07 bd
       0.4808154 1.2369236 -0.71301097 -0.033096783
0000b0 b6 84 8e bd d4 45 80 bf 3a 51 9c 3f 17 04 26 3f
       -0.06958906 -1.002131 1.2212288 0.6484999
0000c0 ce 86 f8 3e 51 2e 6d 3f 1d 20 a0 be 37 11 43 bf
       0.48540348 0.926488 -0.312745 -0.7619814
0000d0 7d 92 7f 3e 59 a9 13 3f c0 48 7e 3e 99 26 86 bf
       0.24958225 0.5768028 0.2483244 -1.0480529
0000e0 c9 93 23 bf 16 13 2b 3f 42 69 d3 be 75 43 75 3f
       -0.6389738 0.66826 -0.41291243 0.95806056
0000f0 3c 35 3f bf 2f d9 43 3f 74 20 28 bf 29 c2 22 bf
       -0.74690604 0.7650327 -0.6567452 -0.63577515
000100 fe cc 02 be 42 67 00 3f a3 b0 bb be 2a ba 82 bf
       -0.12773511 0.5015756 -0.366582 -1.0213063
000110 71 bd 88 bf 99 69 fa 3e ea 79 a1 bf 30 de 8e be
       -1.0682813 0.4890869 -1.261533 -0.2790389
000120 48 0b f9 bc f7 d1 eb 3e d3 1f 66 be 3e 4f a0 be
       -0.030400887 0.46058628 -0.22473077 -0.31310457
000130 56 43 18 3f dc 8a 2d 3f fa 21 ab 3e 13 b5 75 bf
       0.59477746 0.6779001 0.3342436 -0.9597942
000140 55 ad 16 bf 0d 45 2d 3e 37 a8 10 bf 2b 38 f7 be
       -0.58858234 0.16920872 -0.56506675 -0.4828504
000150 a3 2b 51 bf 54 d4 de 3f e2 bd 49 3e 0b c2 47 bf
       -0.8170721 1.7408547 0.19701341 -0.7803046
000160 fb c2 e5 3e cb 42 f6 be ef 46 7c bd b1 33 29 3d
       0.4487532 -0.48097834 -0.061591085 0.041309062
000170 2b 30 58 3e 0c 60 6d 3f 6a 41 95 3e 54 07 aa be
       0.21112125 0.9272468 0.2915147 -0.33208716
000180 6e ce af 3f 74 37 d3 3f e2 b9 f8 bd 22 53 73 be
       1.3734872 1.6501298 -0.12144829 -0.23762181
000190 2f c4 87 bf c3 9e 08 bf e4 13 e7 3e e3 2d 66 3f
       -1.0606745 -0.5336725 0.45132363 0.8991377
0001a0 c9 5f b6 bc 78 48 fb be 2f 11 0a bf 09 23 01 be
       -0.02226247 -0.49078727 -0.5393247 -0.12611021
0001b0 18 cd a6 3e cd 8c 84 3f e4 a2 28 3e bd 81 c3 be
       0.3257835 1.0355469 0.16468388 -0.3818492
0001c0 46 29 8a bf 67 76 14 3f 45 32 35 bf 2f 1e 47 be
       -1.0793846 0.5799317 -0.7077983 -0.19445108
0001d0 55 00 59 3e c8 ee eb 3d a4 59 7d be a1 11 28 3e
       0.21191533 0.11520153 -0.24741226 0.16412975
0001e0 ec e2 a5 be 98 05 70 bd c1 28 a8 be 20 3f 6f 3f
       -0.3239969 -0.058599085 -0.32843593 0.93455696
0001f0 e6 87 a3 bd 02 d8 44 3e e1 9f 88 3f df 3a 16 3f
       -0.07984905 0.19223025 1.0673791 0.5868358
000200 78 6d 43 bd c6 1a 8d bf cb 1b 2b 3e 51 b6 8a 3f
       -0.04771182 -1.1023796 0.16709821 1.0836889
000210 39 46 21 3f c7 0b 1e bf 51 af 10 3e 4a 87 14 bf
       0.62997776 -0.6173672 0.14129378 -0.58018935
000220 c4 02 eb 3d 25 fb 88 3e be a0 41 bf 29 fd b4 be
       0.11475137 0.26754108 -0.756359 -0.35349396
000230 1c 68 0b 3c cc a7 65 3f d7 e0 46 3e 47 54 68 be
       0.008508708 0.8970916 0.19421707 -0.226884
000240 09 44 11 bf f6 27 67 3f aa c1 9b be a7 b8 d4 be
       -0.5674444 0.9029535 -0.3042119 -0.4154713
000250 84 fd 9a 3b 71 c8 6b 3e be 52 0a 3e 16 24 ce be
       0.0047299284 0.23025681 0.13508126 -0.40261906
000260 c3 da 8f be dc ce 0c bf e4 c4 3c be 50 b8 b1 3b
       -0.2809659 -0.5500314 -0.18434483 0.005423583
000270 a3 3a 46 3e 31 d3 79 be a8 5b 1e bd 2d 4d af be
       0.19358306 -0.2439697 -0.03866163 -0.34238568
000280 42 d4 a2 3d 79 dc 91 be 7d 46 48 bf 74 e8 ce 3e
       0.07950641 -0.2848852 -0.78232557 0.40411723
000290 68 2e e6 3e f7 b4 27 3f e6 5d 12 3e 1b b2 1d bf
       0.4495728 0.65510505 0.14293632 -0.6159989
0002a0 79 80 16 3f da ce 06 bf d2 4f db be 19 ee 2a be
       0.58789784 -0.5265938 -0.42834336 -0.1669239
0002b0 b8 f2 48 bb a8 99 78 3e 1e ca a7 bd af 74 0c bf
       -0.003066225 0.24277365 -0.08192848 -0.54865545
0002c0 8c c0 05 3f f9 a6 37 bd 2f 02 95 3e 77 fd 45 bf
       0.5224693 -0.044836972 0.29103228 -0.7733988
0002d0 7a a0 54 3e 1a 3e 63 be f8 cc 32 3f 26 2b 6e 3d
       0.20764342 -0.22191659 0.6984401 0.05814662
0002e0 77 92 87 3d bc 85 8b 3f 3e 07 14 be 76 18 9d 3e
       0.06619733 1.0900187 -0.14455888 0.30682725
0002f0 7f d6 81 3e c4 17 a2 bd c3 ff 9f 3e dd b9 6e be
       0.2535896 -0.07914689 0.31249818 -0.23313089
000300 ce 17 5b 3d 23 10 2f bf f4 3c 93 3e cd d0 20 be
       0.0534895 -0.68384 0.2875744 -0.15704651
000310 2b f1 d0 bf 6d 7b f9 be 27 1c 0f bf 84 2d c4 bd
       -1.6323599 -0.4872698 -0.5590233 -0.09578994
000320 6e af 25 3f d9 b3 9d 3e 25 9a b5 bd df dd 2e bf
       0.6472081 0.30801275 -0.08867291 -0.683073
000330 6d 53 19 3f b2 a3 e8 3e 91 fa 54 3f f3 98 96 bd
       0.5989292 0.4543739 0.83194834 -0.073533915
000340 8d 04 07 3e a7 74 80 bf 69 ee 8a be 6f f2 66 3f
       0.1318533 -1.00356 -0.27135018 0.90213674
000350 4d d0 41 bf 2a a5 a2 3d 89 6f 19 bf 69 fa 12 be
       -0.75708467 0.07941659 -0.59935814 -0.14353336
000360 73 16 0b 3f 06 e1 d0 bf 74 f7 15 3f 5d 58 e6 3e
       0.5433113 -1.6318672 0.5858071 0.4498929
000370 37 28 97 3e a4 97 34 3f 9a af 4b 3f a5 74 60 bf
       0.2952287 0.70543885 0.7956482 -0.87677985
000380 1a b8 28 3f 3c 6a 72 be 2b f4 90 bd 1c 08 1a be
       0.65905917 -0.23673338 -0.07077821 -0.15042156
000390 87 c0 12 3f 9e 4b f6 3e 1a 7d c3 bc 82 07 bc 3f
       0.57325023 0.48104566 -0.023863364 1.4689791
0003a0 46 72 55 bf ef e6 80 3e 2d c1 54 bf ce df a7 bf
       -0.8337749 0.25176188 -0.8310726 -1.3115175
0003b0 8e eb 59 3d 80 27 e8 3e e6 d5 86 3f 38 a1 87 be
       0.053203158 0.45342636 1.0534027 -0.26490188
0003c0 14 06 9b 3e b0 33 a6 bf 36 f5 0f c0 db 21 df 3e
       0.30278075 -1.2984524 -2.2493415 0.43580517
0003d0 82 d1 bf 3e 5c 97 61 be 48 b3 17 bf 01 7a 04 be
       0.3746453 -0.22030395 -0.59257936 -0.12937166
0003e0 1f 2b 22 bf d3 4b c4 3f 2e 49 fa be ab 5d dd 3e
       -0.6334705 1.533564 -0.48883957 0.43235525
0003f0 68 f4 e7 3e 73 20 a8 3f 29 57 16 3f f3 10 fc 3f
       0.45303655 1.3134903 0.58726746 1.9692672

weight_hh_l1 f4 [300, 100]
000000 a7 a5 3f 3f 08 e7 dc be 36 89 d2 3e a4 d2 8e be
       0.7486214 -0.43145013 0.4112031 -0.2789508
000010 d5 86 9b be 01 36 8a 3e 4c ff 11 bd 59 c0 d3 be
       -0.30376306 0.26994327 -0.03564386 -0.41357687
000020 67 05 ff be 9c 34 28 bf 61 10 37 be 91 7d 97 3e
       -0.4980881 -0.65705276 -0.17877342 0.29587987
000030 b6 41 28 bf 6c c9 1f 3e f9 f4 6b be af 78 44 3f
       -0.65725267 0.1560418 -0.23042668 0.7674665
000040 e9 80 1f 3f c3 46 c1 bf a6 b7 7e 3d b5 2f 02 3e
       0.62306076 -1.509972 0.06218686 0.12713511
000050 62 89 5d be 2f 90 ae be dc c4 a1 3e d5 aa cb bd
       -0.21634439 -0.34094378 0.31595504 -0.09944693
000060 2b f4 a7 3c f3 96 52 3f c9 c4 14 bd ed 90 0a 3f
       0.02050217 0.8226158 -0.03632048 0.5412739
000070 9b cf 33 3e cd e4 e0 be 25 0a 81 3e b6 5c 98 3e
       0.17559664 -0.4392456 0.25203052 0.29758233
000080 9c 7e cb 3e 2d 1c 93 3e bd ef 3c bd 29 66 98 be
       0.39745033 0.28732434 -0.04612707 -0.29765442
000090 da 02 42 3f b7 1b d3 3c 1b dc 97 3e 3a 3b 15 bf
       0.757856 0.025770051 0.29660115 -0.582935
0000a0 7b c9 cb be c8 4f 59 bf ab ad 9d 3f d6 86 00 bf
       -0.39802155 -0.8488736 1.2318624 -0.50205743
0000b0 de 9e 08 3e 31 22 c8 3e 86 f0 8c be 5e 15 85 3f
       0.13341853 0.39088586 -0.27527255 1.0397146
0000c0 29 75 b5 3e 26 a0 ac 3f 13 05 ed 3e 70 d0 d3 3e
       0.3544095 1.3486373 0.46292934 0.41369963
0000d0 dc 4a 5d 3e 8f 79 8c be aa a4 6e bc cf d7 35 3e
       0.21610588 -0.27436492 -0.014565626 0.17758106
0000e0 21 b6 1a bf 6a 41 95 be a7 40 d9 be fb 90 fb be
       -0.60434157 -0.2915147 -0.42432138 -0.4913405
0000f0 5a 18 61 3e bd e0 88 bf 35 24 08 3f 99 e5 93 be
       0.21981946 -1.0693585 0.5318025 -0.28886107
000100 53 e8 db be e0 20 f8 3e 9c 07 c2 3f 8f 23 fd bc
       -0.42950687 0.48462582 1.5158572 -0.030900745
000110 b1 af b3 3e 89 ca b9 3e b9 be 05 40 49 04 4e be
       0.3509498 0.36287335 2.0897658 -0.20118822
000120 18 63 d2 be 8f 4b ec 3d c6 d7 41 3e 18 09 d0 39
       -0.41091228 0.11537849 0.18929967 0.00039679627
000130 52 a0 17 3e df 43 88 bd 6c 63 a9 bf 23 1a 88 bf
       0.14807251 -0.066535704 -1.3233466 -1.0632976
000140 e9 57 e6 3e 80 07 34 bf cf 70 06 3e 88 60 da 3e
       0.44988945 -0.70323944 0.1312897 0.42651772
000150 5a 6d 33 3e a9 14 4a 3f 2b da ca be de 4f c3 bd
       0.17522183 0.78937775 -0.39619574 -0.09536718
000160 07 f7 1b 3e c7 1c a7 3e 80 96 7c bf 6b 4d 68 be
       0.15230952 0.32639143 -0.98667145 -0.22685783
000170 5f 40 80 bf ec b4 07 3f 9e d2 d2 3d 60 c3 81 3f
       -1.0019644 0.5301044 0.10294078 1.0137749
000180 c3 28 12 be e7 be b0 3f 61 24 34 3f 5b cf 4c 3f
       -0.14273362 1.3808259 0.7036801 0.800039
000190 d2 fb 6d 3e dd 2b 6a 3f c5 75 2c bf de 9a cc bd
       0.23240593 0.9147318 -0.673672 -0.09990476
0001a0 20 9d a8 bd 51 e2 6d 3e bc ae 12 3f 06 d5 ea 3d
       -0.08233094 0.23230864 0.57297873 0.11466412
0001b0 7a ed 2a bd 71 5f 23 bf 5a b0 50 3e 10 54 a1 be
       -0.04173038 -0.6381751 0.20379773 -0.31509447
0001c0 08 25 d3 be f1 cb ec be d8 59 01 3e 0a 17 9a bd
       -0.4123919 -0.46249345 0.12631929 -0.075239256
0001d0 14 8a 29 bd 1d 9b 26 3e c4 c9 75 3e fb db d8 be
       -0.041391447 0.16270109 0.24002749 -0.42355332
0001e0 b1 35 19 be 89 a9 b2 be c1 34 c9 bd c1 f5 29 bd
       -0.14961888 -0.3489497 -0.09824515 -0.041494135
0001f0 69 44 39 3d 77 ba 40 3e d3 63 2a 3f f7 1a 51 bf
       0.045231257 0.1882113 0.6655857 -0.8168177
000200 5f 6a 27 be c9 9d d5 3d 5d 8b 3f bf 9c 83 27 be
       -0.16349171 0.10430486 -0.74822026 -0.16358799
000210 3b d4 80 be a6 8f a3 bd 25 d4 ca bc 1b de 29 3f
       -0.2516192 -0.07986383 -0.024759362 0.6635453
000220 88 db 9d 3e 42 ad f2 3e 1e 83 a5 3e 4b c7 72 bd
       0.30831552 0.4739781 0.32326597 -0.05927209
000230 bd db ae 3e 46 ce c1 3d 1d a5 7b 3f 41 9e 1c 3e
       0.34152022 0.09463172 0.9829882 0.15294744
000240 3f 33 aa 3e bd ea b5 bd 13 2a 92 3d 5b 50 dc 3e
       0.33242223 -0.088826634 0.07136931 0.43030056
000250 47 c2 d4 be 23 6c b1 be 48 36 0e be 6d fc 01 bf
       -0.41554472 -0.34652814 -0.13887894 -0.50775796
000260 2a 00 cf 3c d2 88 57 3c 04 68 43 3e 56 02 52 3d
       0.025268633 0.013155179 0.19082648 0.05127176
000270 f4 0f 00 be 1d a0 58 3d 91 d0 f3 bd 33 aa 0c bf
       -0.12506086 0.05288707 -0.11905015 -0.54947203
000280 55 84 fb 3c eb 07 8e bf 67 af af bd ee 0c bf 3e
       0.03070275 -1.1096166 -0.08578377 0.37314552
000290 36 0b 52 3f 79 98 a6 be 5b 2a 8a be a7 36 89 3c
       0.82048357 -0.32538202 -0.2698544 0.016749693
0002a0 37 9d 0d 3e 09 0e 0d 3d f5 c5 30 bc 8c 18 0c 3f
       0.13829504 0.034437213 -0.010789384 0.54724956
0002b0 00 e7 e3 bd 00 13 eb be ca 62 34 3f 2e 22 f0 bc
       -0.11128044 -0.45912933 0.7046324 -0.029313173
0002c0 74 4d 5a 3e e9 e8 15 3f 12 85 bc 3e f7 ca bc 3d
       0.21318609 0.5855852 0.36820275 0.092184
0002d0 26 3e 64 be ec 29 b0 3d 67 de 67 3f 23 7b 92 bd
       -0.22289333 0.08601746 0.90573734 -0.07152393
0002e0 3d 09 7f 3e 1d f1 b9 bc 62 9d a5 be 92 d9 d1 bc
       0.24905868 -0.02269798 -0.32346636 -0.02561644
0002f0 fd d5 db 3d cd 6b 90 be 14 f0 9d 3c d3 25 a3 3e
       0.107341744 -0.28207245 0.019279517 0.31864795
000300 f3 19 98 bd 64 a1 91 3c 11 bd fb 3e aa 7f b4 bd
       -0.074268244 0.017777152 0.49167684 -0.088134125
000310 84 54 37 3e 5f 42 3c 3e d8 35 89 be 62 02 f7 bd
       0.17903334 0.18384694 -0.26798892 -0.12061001
000320 c0 73 d4 3e 9a 6e 81 bf 59 cd 7e 3f ea a2 88 bf
       0.4149456 -1.0111878 0.99532086 -1.0674717
000330 6b 78 19 3f 26 d1 22 3b bb a0 a7 bf 9d 9f ad 3c
       0.5994937 0.00248439 -1.3095926 0.021194274
000340 ee 6a 61 be 08 be 4b 3e f6 1c d4 bd 1e a3 0b 3e
       -0.22013447 0.1989671 -0.10357086 0.13636443
000350 98 28 48 3c cb 09 13 3f e9 05 0d bf 7e 31 66 3d
       0.01221671 0.5743682 -0.55087143 0.056199543
000360 88 7c 3b 3f 2d 0b 8f 3f 72 a6 0f 3f b4 7f a6 bf
       0.73236895 1.1175286 0.5611335 -1.3007722
000370 7e 08 0d 3f 99 cd ef 3d 96 d8 a4 bd 4c 4d 81 3d
       0.55091083 0.117091365 -0.08049123 0.06313571
000380 a5 06 88 bf 7a f1 5c 3e d8 a0 4a bd 50 b1 33 bf
       -1.0627028 0.21576491 -0.0494698 -0.7019243
000390 4d ed 20 3f 74 18 35 be 9f d2 ac 3e ef 05 2e bf
       0.6286209 -0.1768511 0.3375444 -0.67977804
0003a0 d4 dc 53 bd 32 61 1c bf 0a 11 52 be 68 2f e0 be
       -0.05172427 -0.6108581 -0.20514312 -0.43786168
0003b0 a1 39 35 3f b2 d4 3f bf 6a ad 44 3d c3 63 3e be
       0.7079106 -0.7493392 0.048016943 -0.18592744
0003c0 2a 07 07 bf 52 bd 35 3e a5 7e cf 3e 64 08 c2 3f
       -0.52745306 0.17748001 0.4052631 1.5158811
0003d0 fc 51 44 3e 8d 4a 46 be ae 36 bd 3e 40 3b a2 3e
       0.191719 -0.19364376 0.3695578 0.3168583
0003e0 f9 f0 43 bf 16 4e 92 be e1 a7 c4 3e 92 82 55 3f
       -0.7653957 -0.285752 0.3840933 0.8340236
0003f0 f6 3f 95 bd 60 db 1a 3d 4e 15 7d 3f e4 38 31 3f
       -0.0728759 0.03780687 0.98860633 0.69227433
